…
I0605 09:30:40.135622  1037 upgrade_proto.cpp:67] Attempting to upgrade input file specified using deprecated input fields: /home/pi/Desktop/trained_model_64/deploy.prototxt
I0605 09:30:40.136776  1037 upgrade_proto.cpp:70] Successfully upgraded file specified using deprecated input fields.
W0605 09:30:40.136888  1037 upgrade_proto.cpp:72] Note that future Caffe releases will only support input layers and not input fields.
I0605 09:30:40.137403  1037 net.cpp:58] Initializing net from parameters: 
name: "Lenet"
state {
  phase: TEST
  level: 0
}
layer {
  name: "input"
  type: "Input"
  top: "data"
  input_param {
    shape {
      dim: 1
      dim: 3
      dim: 64
      dim: 64
    }
  }
}
layer {
  name: "Convolution1"
  type: "Convolution"
  bottom: "data"
  top: "Convolution1"
  convolution_param {
    num_output: 20
    pad: 0
    kernel_size: 5
    stride: 1
    weight_filler {
      type: "xavier"
    }
  }
}
layer {
  name: "Pooling1"
  type: "Pooling"
  bottom: "Convolution1"
  top: "Pooling1"
  pooling_param {
    pool: MAX
    kernel_size: 2
    stride: 2
  }
}
layer {
  name: "Convolution2"
  type: "Convolution"
  bottom: "Pooling1"
  top: "Convolution2"
  convolution_param {
    num_output: 50
    pad: 0
    kernel_size: 5
    stride: 1
    weight_filler {
      type: "xavier"
    }
  }
}
layer {
  name: "Pooling2"
  type: "Pooling"
  bottom: "Convolution2"
  top: "Pooling2"
  pooling_param {
    pool: MAX
    kernel_size: 2
    stride: 2
  }
}
layer {
  name: "Convolution3"
  type: "Convolution"
  bottom: "Pooling2"
  top: "Convolution3"
  convolution_param {
    num_output: 100
    pad: 0
    kernel_size: 5
    stride: 1
    weight_filler {
      type: "xavier"
    }
  }
}
layer {
  name: "Pooling3"
  type: "Pooling"
  bottom: "Convolution3"
  top: "Pooling3"
  pooling_param {
    pool: MAX
    kernel_size: 2
    stride: 2
  }
}
layer {
  name: "InnerProduct1"
  type: "InnerProduct"
  bottom: "Pooling3"
  top: "InnerProduct1"
  inner_product_param {
    num_output: 500
    weight_filler {
      type: "xavier"
    }
  }
}
layer {
  name: "ReLU1"
  type: "ReLU"
  bottom: "InnerProduct1"
  top: "InnerProduct1"
}
layer {
  name: "InnerProduct2"
  type: "InnerProduct"
  bottom: "InnerProduct1"
  top: "InnerProduct2"
  inner_product_param {
    num_output: 13
    weight_filler {
      type: "xavier"
    }
  }
}
layer {
  name: "Softmax1"
  type: "Softmax"
  bottom: "InnerProduct2"
  top: "Softmax1"
}
I0605 09:30:40.138231  1037 layer_factory.hpp:77] Creating layer input
I0605 09:30:40.138295  1037 net.cpp:100] Creating Layer input
I0605 09:30:40.138321  1037 net.cpp:408] input -> data
I0605 09:30:40.138568  1037 net.cpp:150] Setting up input
I0605 09:30:40.138604  1037 net.cpp:157] Top shape: 1 3 64 64 (12288)
I0605 09:30:40.138640  1037 net.cpp:165] Memory required for data: 49152
I0605 09:30:40.138664  1037 layer_factory.hpp:77] Creating layer Convolution1
I0605 09:30:40.138712  1037 net.cpp:100] Creating Layer Convolution1
I0605 09:30:40.138736  1037 net.cpp:434] Convolution1 <- data
I0605 09:30:40.138768  1037 net.cpp:408] Convolution1 -> Convolution1
I0605 09:30:40.143885  1037 net.cpp:150] Setting up Convolution1
I0605 09:30:40.144829  1037 net.cpp:157] Top shape: 1 20 60 60 (72000)
I0605 09:30:40.145118  1037 net.cpp:165] Memory required for data: 337152
I0605 09:30:40.145323  1037 layer_factory.hpp:77] Creating layer Pooling1
I0605 09:30:40.145516  1037 net.cpp:100] Creating Layer Pooling1
I0605 09:30:40.145552  1037 net.cpp:434] Pooling1 <- Convolution1
I0605 09:30:40.145648  1037 net.cpp:408] Pooling1 -> Pooling1
I0605 09:30:40.145829  1037 net.cpp:150] Setting up Pooling1
I0605 09:30:40.145926  1037 net.cpp:157] Top shape: 1 20 30 30 (18000)
I0605 09:30:40.145980  1037 net.cpp:165] Memory required for data: 409152
I0605 09:30:40.146008  1037 layer_factory.hpp:77] Creating layer Convolution2
I0605 09:30:40.146132  1037 net.cpp:100] Creating Layer Convolution2
I0605 09:30:40.146157  1037 net.cpp:434] Convolution2 <- Pooling1
I0605 09:30:40.146296  1037 net.cpp:408] Convolution2 -> Convolution2
I0605 09:30:40.148497  1037 net.cpp:150] Setting up Convolution2
I0605 09:30:40.148583  1037 net.cpp:157] Top shape: 1 50 26 26 (33800)
I0605 09:30:40.148648  1037 net.cpp:165] Memory required for data: 544352
I0605 09:30:40.148710  1037 layer_factory.hpp:77] Creating layer Pooling2
I0605 09:30:40.148779  1037 net.cpp:100] Creating Layer Pooling2
I0605 09:30:40.148800  1037 net.cpp:434] Pooling2 <- Convolution2
I0605 09:30:40.148833  1037 net.cpp:408] Pooling2 -> Pooling2
I0605 09:30:40.148927  1037 net.cpp:150] Setting up Pooling2
I0605 09:30:40.148946  1037 net.cpp:157] Top shape: 1 50 13 13 (8450)
I0605 09:30:40.148977  1037 net.cpp:165] Memory required for data: 578152
I0605 09:30:40.148999  1037 layer_factory.hpp:77] Creating layer Convolution3
I0605 09:30:40.149040  1037 net.cpp:100] Creating Layer Convolution3
I0605 09:30:40.149058  1037 net.cpp:434] Convolution3 <- Pooling2
I0605 09:30:40.149085  1037 net.cpp:408] Convolution3 -> Convolution3
I0605 09:30:40.155516  1037 net.cpp:150] Setting up Convolution3
I0605 09:30:40.156424  1037 net.cpp:157] Top shape: 1 100 9 9 (8100)
I0605 09:30:40.156549  1037 net.cpp:165] Memory required for data: 610552
I0605 09:30:40.156653  1037 layer_factory.hpp:77] Creating layer Pooling3
I0605 09:30:40.156729  1037 net.cpp:100] Creating Layer Pooling3
I0605 09:30:40.156754  1037 net.cpp:434] Pooling3 <- Convolution3
I0605 09:30:40.156797  1037 net.cpp:408] Pooling3 -> Pooling3
I0605 09:30:40.156924  1037 net.cpp:150] Setting up Pooling3
I0605 09:30:40.156947  1037 net.cpp:157] Top shape: 1 100 5 5 (2500)
I0605 09:30:40.156993  1037 net.cpp:165] Memory required for data: 620552
I0605 09:30:40.157014  1037 layer_factory.hpp:77] Creating layer InnerProduct1
I0605 09:30:40.157065  1037 net.cpp:100] Creating Layer InnerProduct1
I0605 09:30:40.157096  1037 net.cpp:434] InnerProduct1 <- Pooling3
I0605 09:30:40.157135  1037 net.cpp:408] InnerProduct1 -> InnerProduct1
I0605 09:30:40.219373  1037 net.cpp:150] Setting up InnerProduct1
I0605 09:30:40.219622  1037 net.cpp:157] Top shape: 1 500 (500)
I0605 09:30:40.219725  1037 net.cpp:165] Memory required for data: 622552
I0605 09:30:40.219815  1037 layer_factory.hpp:77] Creating layer ReLU1
I0605 09:30:40.220172  1037 net.cpp:100] Creating Layer ReLU1
I0605 09:30:40.220244  1037 net.cpp:434] ReLU1 <- InnerProduct1
I0605 09:30:40.220299  1037 net.cpp:395] ReLU1 -> InnerProduct1 (in-place)
I0605 09:30:40.220376  1037 net.cpp:150] Setting up ReLU1
I0605 09:30:40.220396  1037 net.cpp:157] Top shape: 1 500 (500)
I0605 09:30:40.220430  1037 net.cpp:165] Memory required for data: 624552
I0605 09:30:40.220453  1037 layer_factory.hpp:77] Creating layer InnerProduct2
I0605 09:30:40.220505  1037 net.cpp:100] Creating Layer InnerProduct2
I0605 09:30:40.220525  1037 net.cpp:434] InnerProduct2 <- InnerProduct1
I0605 09:30:40.220558  1037 net.cpp:408] InnerProduct2 -> InnerProduct2
I0605 09:30:40.220984  1037 net.cpp:150] Setting up InnerProduct2
I0605 09:30:40.221029  1037 net.cpp:157] Top shape: 1 13 (13)
I0605 09:30:40.221074  1037 net.cpp:165] Memory required for data: 624604
I0605 09:30:40.221153  1037 layer_factory.hpp:77] Creating layer Softmax1
I0605 09:30:40.221205  1037 net.cpp:100] Creating Layer Softmax1
I0605 09:30:40.221238  1037 net.cpp:434] Softmax1 <- InnerProduct2
I0605 09:30:40.221274  1037 net.cpp:408] Softmax1 -> Softmax1
I0605 09:30:40.221410  1037 net.cpp:150] Setting up Softmax1
I0605 09:30:40.221436  1037 net.cpp:157] Top shape: 1 13 (13)
I0605 09:30:40.221477  1037 net.cpp:165] Memory required for data: 624656
I0605 09:30:40.221499  1037 net.cpp:228] Softmax1 does not need backward computation.
I0605 09:30:40.221525  1037 net.cpp:228] InnerProduct2 does not need backward computation.
I0605 09:30:40.221542  1037 net.cpp:228] ReLU1 does not need backward computation.
I0605 09:30:40.221559  1037 net.cpp:228] InnerProduct1 does not need backward computation.
…
